 Started run 104/135 with architecture: PudgeFiveLayer, learning rate: 0.0001, batch size: 128, max nodes: 1024
42
PudgeFiveLayer(
  (layer1): Linear(in_features=4, out_features=512, bias=True)
  (layer2): Linear(in_features=512, out_features=1024, bias=True)
  (layer3): Linear(in_features=1024, out_features=512, bias=True)
  (layer4): Linear(in_features=512, out_features=256, bias=True)
  (layer5): Linear(in_features=256, out_features=2, bias=True)
)
Trainable parameters: 1184514
Currently configured to use 1 GPU(s).
Warning: visualization (Tensorboard) is configured to use, but currently not installed on this machine. Please install TensorboardX with 'pip install tensorboardx', upgrade PyTorch to version >= 1.1 to use 'torch.utils.tensorboard' or turn off the option in the 'config.json' file.
    epoch          : 1
…
    val_model_mae  : 0.007797754369676113
    val_model_max_ae: 0.16006983816623688
    val_consumption_mae: 0.06226770207285881
    val_consumption_max_ae: 0.7520619630813599
    val_i_a_mae    : 0.009197807870805264
    val_i_a_max_ae : 0.15411433577537537
    val_n_wrong_i_a: 94
    val_n_exceeding_i_a_k: 246
Validation performance didn't improve for 15 epochs. Training stops.
 Finished run 104/135 with architecture: PudgeFiveLayer, learning rate: 0.0001, batch size: 128, max nodes: 1024
 Started run 105/135 with architecture: PudgeFiveLayer, learning rate: 0.0001, batch size: 128, max nodes: 2048
42
PudgeFiveLayer(
  (layer1): Linear(in_features=4, out_features=1024, bias=True)
  (layer2): Linear(in_features=1024, out_features=2048, bias=True)
  (layer3): Linear(in_features=2048, out_features=1024, bias=True)
  (layer4): Linear(in_features=1024, out_features=512, bias=True)
  (layer5): Linear(in_features=512, out_features=2, bias=True)
)
Trainable parameters: 4728322
Currently configured to use 1 GPU(s).
Warning: visualization (Tensorboard) is configured to use, but currently not installed on this machine. Please install TensorboardX with 'pip install tensorboardx', upgrade PyTorch to version >= 1.1 to use 'torch.utils.tensorboard' or turn off the option in the 'config.json' file.
    epoch          : 1
…
    val_model_mae  : 0.006336813792586327
    val_model_max_ae: 0.1491873860359192
    val_consumption_mae: 0.054746393114328384
    val_consumption_max_ae: 0.7165563106536865
    val_i_a_mae    : 0.007048708852380514
    val_i_a_max_ae : 0.13849641382694244
    val_n_wrong_i_a: 71
    val_n_exceeding_i_a_k: 274
Validation performance didn't improve for 15 epochs. Training stops.
 Finished run 105/135 with architecture: PudgeFiveLayer, learning rate: 0.0001, batch size: 128, max nodes: 2048
 Started run 106/135 with architecture: PudgeFiveLayer, learning rate: 0.0001, batch size: 512, max nodes: 512
42
PudgeFiveLayer(
  (layer1): Linear(in_features=4, out_features=256, bias=True)
  (layer2): Linear(in_features=256, out_features=512, bias=True)
  (layer3): Linear(in_features=512, out_features=256, bias=True)
  (layer4): Linear(in_features=256, out_features=128, bias=True)
  (layer5): Linear(in_features=128, out_features=2, bias=True)
)
Trainable parameters: 297346
Currently configured to use 1 GPU(s).
Warning: visualization (Tensorboard) is configured to use, but currently not installed on this machine. Please install TensorboardX with 'pip install tensorboardx', upgrade PyTorch to version >= 1.1 to use 'torch.utils.tensorboard' or turn off the option in the 'config.json' file.
    epoch          : 1
…
    val_model_mae  : 0.009727775119245052
    val_model_max_ae: 0.24536767601966858
    val_consumption_mae: 0.07248273491859436
    val_consumption_max_ae: 1.6664046049118042
    val_i_a_mae    : 0.012008308432996273
    val_i_a_max_ae : 0.22355057299137115
    val_n_wrong_i_a: 130
    val_n_exceeding_i_a_k: 254
Validation performance didn't improve for 15 epochs. Training stops.
 Finished run 108/135 with architecture: PudgeFiveLayer, learning rate: 0.0001, batch size: 512, max nodes: 2048
 Started run 109/135 with architecture: PudgeSixLayer, learning rate: 0.001, batch size: 64, max nodes: 512
42
PudgeSixLayer(
  (layer1): Linear(in_features=4, out_features=128, bias=True)
  (layer2): Linear(in_features=128, out_features=256, bias=True)
  (layer3): Linear(in_features=256, out_features=512, bias=True)
  (layer4): Linear(in_features=512, out_features=256, bias=True)
  (layer5): Linear(in_features=256, out_features=128, bias=True)
  (layer6): Linear(in_features=128, out_features=2, bias=True)
)
Trainable parameters: 329730
Currently configured to use 1 GPU(s).
Warning: visualization (Tensorboard) is configured to use, but currently not installed on this machine. Please install TensorboardX with 'pip install tensorboardx', upgrade PyTorch to version >= 1.1 to use 'torch.utils.tensorboard' or turn off the option in the 'config.json' file.
    epoch          : 1
…
    val_model_max_ae: 0.09706452488899231
    val_consumption_mae: 0.05304295942187309
    val_consumption_max_ae: 0.4503128230571747
    val_i_a_mae    : 0.00373631133697927
    val_i_a_max_ae : 0.0853966474533081
    val_n_wrong_i_a: 44
    val_n_exceeding_i_a_k: 216
Saving checkpoint: saved/both/S42/models/both_PudgeSixLayer_512/0723_113228/checkpoint-epoch200.pth ...
 Finished run 109/135 with architecture: PudgeSixLayer, learning rate: 0.001, batch size: 64, max nodes: 512
 Started run 110/135 with architecture: PudgeSixLayer, learning rate: 0.001, batch size: 64, max nodes: 1024
42
PudgeSixLayer(
  (layer1): Linear(in_features=4, out_features=256, bias=True)
  (layer2): Linear(in_features=256, out_features=512, bias=True)
  (layer3): Linear(in_features=512, out_features=1024, bias=True)
  (layer4): Linear(in_features=1024, out_features=512, bias=True)
  (layer5): Linear(in_features=512, out_features=256, bias=True)
  (layer6): Linear(in_features=256, out_features=2, bias=True)
)
Trainable parameters: 1314818
Currently configured to use 1 GPU(s).
Warning: visualization (Tensorboard) is configured to use, but currently not installed on this machine. Please install TensorboardX with 'pip install tensorboardx', upgrade PyTorch to version >= 1.1 to use 'torch.utils.tensorboard' or turn off the option in the 'config.json' file.
    epoch          : 1
…
    val_model_mae  : 0.004018788691610098
    val_model_max_ae: 0.10063530504703522
    val_consumption_mae: 0.04597349837422371
    val_consumption_max_ae: 0.4138784408569336
    val_i_a_mae    : 0.0033140284940600395
    val_i_a_max_ae : 0.08977659791707993
    val_n_wrong_i_a: 44
    val_n_exceeding_i_a_k: 237
Validation performance didn't improve for 15 epochs. Training stops.
 Finished run 110/135 with architecture: PudgeSixLayer, learning rate: 0.001, batch size: 64, max nodes: 1024
 Started run 111/135 with architecture: PudgeSixLayer, learning rate: 0.001, batch size: 64, max nodes: 2048
42
PudgeSixLayer(
  (layer1): Linear(in_features=4, out_features=512, bias=True)
  (layer2): Linear(in_features=512, out_features=1024, bias=True)
  (layer3): Linear(in_features=1024, out_features=2048, bias=True)
  (layer4): Linear(in_features=2048, out_features=1024, bias=True)
  (layer5): Linear(in_features=1024, out_features=512, bias=True)
  (layer6): Linear(in_features=512, out_features=2, bias=True)
)
Trainable parameters: 5251074
Currently configured to use 1 GPU(s).
Warning: visualization (Tensorboard) is configured to use, but currently not installed on this machine. Please install TensorboardX with 'pip install tensorboardx', upgrade PyTorch to version >= 1.1 to use 'torch.utils.tensorboard' or turn off the option in the 'config.json' file.
    epoch          : 1
…
