 Started run 110/135 with architecture: PudgeSixLayer, learning rate: 0.001, batch size: 64, max nodes: 1024
21
PudgeSixLayer(
  (layer1): Linear(in_features=4, out_features=256, bias=True)
  (layer2): Linear(in_features=256, out_features=512, bias=True)
  (layer3): Linear(in_features=512, out_features=1024, bias=True)
  (layer4): Linear(in_features=1024, out_features=512, bias=True)
  (layer5): Linear(in_features=512, out_features=256, bias=True)
  (layer6): Linear(in_features=256, out_features=2, bias=True)
)
Trainable parameters: 1314818
Currently configured to use 1 GPU(s).
Warning: visualization (Tensorboard) is configured to use, but currently not installed on this machine. Please install TensorboardX with 'pip install tensorboardx', upgrade PyTorch to version >= 1.1 to use 'torch.utils.tensorboard' or turn off the option in the 'config.json' file.
    epoch          : 1
…
    val_model_mae  : 0.0037782469298690557
    val_model_max_ae: 0.0967453122138977
    val_consumption_mae: 0.04344111680984497
    val_consumption_max_ae: 0.4161004424095154
    val_i_a_mae    : 0.0030931346118450165
    val_i_a_max_ae : 0.08409151434898376
    val_n_wrong_i_a: 45
    val_n_exceeding_i_a_k: 239
Validation performance didn't improve for 15 epochs. Training stops.
 Finished run 110/135 with architecture: PudgeSixLayer, learning rate: 0.001, batch size: 64, max nodes: 1024
 Started run 111/135 with architecture: PudgeSixLayer, learning rate: 0.001, batch size: 64, max nodes: 2048
21
PudgeSixLayer(
  (layer1): Linear(in_features=4, out_features=512, bias=True)
  (layer2): Linear(in_features=512, out_features=1024, bias=True)
  (layer3): Linear(in_features=1024, out_features=2048, bias=True)
  (layer4): Linear(in_features=2048, out_features=1024, bias=True)
  (layer5): Linear(in_features=1024, out_features=512, bias=True)
  (layer6): Linear(in_features=512, out_features=2, bias=True)
)
Trainable parameters: 5251074
Currently configured to use 1 GPU(s).
Warning: visualization (Tensorboard) is configured to use, but currently not installed on this machine. Please install TensorboardX with 'pip install tensorboardx', upgrade PyTorch to version >= 1.1 to use 'torch.utils.tensorboard' or turn off the option in the 'config.json' file.
    epoch          : 1
…
    val_model_mae  : 0.003826037049293518
    val_model_max_ae: 0.09891780465841293
    val_consumption_mae: 0.04237404465675354
    val_consumption_max_ae: 0.4220349192619324
    val_i_a_mae    : 0.0032983513083308935
    val_i_a_max_ae : 0.08833741396665573
    val_n_wrong_i_a: 48
    val_n_exceeding_i_a_k: 251
Validation performance didn't improve for 15 epochs. Training stops.
 Finished run 111/135 with architecture: PudgeSixLayer, learning rate: 0.001, batch size: 64, max nodes: 2048
 Started run 112/135 with architecture: PudgeSixLayer, learning rate: 0.001, batch size: 128, max nodes: 512
21
PudgeSixLayer(
  (layer1): Linear(in_features=4, out_features=128, bias=True)
  (layer2): Linear(in_features=128, out_features=256, bias=True)
  (layer3): Linear(in_features=256, out_features=512, bias=True)
  (layer4): Linear(in_features=512, out_features=256, bias=True)
  (layer5): Linear(in_features=256, out_features=128, bias=True)
  (layer6): Linear(in_features=128, out_features=2, bias=True)
)
Trainable parameters: 329730
Currently configured to use 1 GPU(s).
Warning: visualization (Tensorboard) is configured to use, but currently not installed on this machine. Please install TensorboardX with 'pip install tensorboardx', upgrade PyTorch to version >= 1.1 to use 'torch.utils.tensorboard' or turn off the option in the 'config.json' file.
    epoch          : 1
…
