 Started run 102/135 with architecture: PudgeFiveLayer, learning rate: 0.0001, batch size: 64, max nodes: 2048
84
PudgeFiveLayer(
  (layer1): Linear(in_features=4, out_features=1024, bias=True)
  (layer2): Linear(in_features=1024, out_features=2048, bias=True)
  (layer3): Linear(in_features=2048, out_features=1024, bias=True)
  (layer4): Linear(in_features=1024, out_features=512, bias=True)
  (layer5): Linear(in_features=512, out_features=2, bias=True)
)
Trainable parameters: 4728322
Currently configured to use 1 GPU(s).
Warning: visualization (Tensorboard) is configured to use, but currently not installed on this machine. Please install TensorboardX with 'pip install tensorboardx', upgrade PyTorch to version >= 1.1 to use 'torch.utils.tensorboard' or turn off the option in the 'config.json' file.
    epoch          : 1
…
    val_model_mae  : 0.005496975500136614
    val_model_max_ae: 0.1100354939699173
    val_consumption_mae: 0.049355559051036835
    val_consumption_max_ae: 0.48455965518951416
    val_i_a_mae    : 0.005922907497733831
    val_i_a_max_ae : 0.10107742995023727
    val_n_wrong_i_a: 65
    val_n_exceeding_i_a_k: 230
Validation performance didn't improve for 15 epochs. Training stops.
 Finished run 102/135 with architecture: PudgeFiveLayer, learning rate: 0.0001, batch size: 64, max nodes: 2048
 Started run 103/135 with architecture: PudgeFiveLayer, learning rate: 0.0001, batch size: 128, max nodes: 512
84
PudgeFiveLayer(
  (layer1): Linear(in_features=4, out_features=256, bias=True)
  (layer2): Linear(in_features=256, out_features=512, bias=True)
  (layer3): Linear(in_features=512, out_features=256, bias=True)
  (layer4): Linear(in_features=256, out_features=128, bias=True)
  (layer5): Linear(in_features=128, out_features=2, bias=True)
)
Trainable parameters: 297346
Currently configured to use 1 GPU(s).
Warning: visualization (Tensorboard) is configured to use, but currently not installed on this machine. Please install TensorboardX with 'pip install tensorboardx', upgrade PyTorch to version >= 1.1 to use 'torch.utils.tensorboard' or turn off the option in the 'config.json' file.
    epoch          : 1
…
    val_model_mae  : 0.011144664138555527
    val_model_max_ae: 0.18691152334213257
    val_consumption_mae: 0.08257412910461426
    val_consumption_max_ae: 0.9378400444984436
    val_i_a_mae    : 0.013805242255330086
    val_i_a_max_ae : 0.17745283246040344
    val_n_wrong_i_a: 174
    val_n_exceeding_i_a_k: 247
Validation performance didn't improve for 15 epochs. Training stops.
 Finished run 103/135 with architecture: PudgeFiveLayer, learning rate: 0.0001, batch size: 128, max nodes: 512
 Started run 104/135 with architecture: PudgeFiveLayer, learning rate: 0.0001, batch size: 128, max nodes: 1024
84
PudgeFiveLayer(
  (layer1): Linear(in_features=4, out_features=512, bias=True)
  (layer2): Linear(in_features=512, out_features=1024, bias=True)
  (layer3): Linear(in_features=1024, out_features=512, bias=True)
  (layer4): Linear(in_features=512, out_features=256, bias=True)
  (layer5): Linear(in_features=256, out_features=2, bias=True)
)
Trainable parameters: 1184514
Currently configured to use 1 GPU(s).
Warning: visualization (Tensorboard) is configured to use, but currently not installed on this machine. Please install TensorboardX with 'pip install tensorboardx', upgrade PyTorch to version >= 1.1 to use 'torch.utils.tensorboard' or turn off the option in the 'config.json' file.
    epoch          : 1
…
    val_model_mae  : 0.00965594407171011
    val_model_max_ae: 0.2484971284866333
    val_consumption_mae: 0.07457030564546585
    val_consumption_max_ae: 1.5025354623794556
    val_i_a_mae    : 0.01165015809237957
    val_i_a_max_ae : 0.22617247700691223
    val_n_wrong_i_a: 128
    val_n_exceeding_i_a_k: 242
Validation performance didn't improve for 15 epochs. Training stops.
 Finished run 108/135 with architecture: PudgeFiveLayer, learning rate: 0.0001, batch size: 512, max nodes: 2048
 Started run 109/135 with architecture: PudgeSixLayer, learning rate: 0.001, batch size: 64, max nodes: 512
84
PudgeSixLayer(
  (layer1): Linear(in_features=4, out_features=128, bias=True)
  (layer2): Linear(in_features=128, out_features=256, bias=True)
  (layer3): Linear(in_features=256, out_features=512, bias=True)
  (layer4): Linear(in_features=512, out_features=256, bias=True)
  (layer5): Linear(in_features=256, out_features=128, bias=True)
  (layer6): Linear(in_features=128, out_features=2, bias=True)
)
Trainable parameters: 329730
Currently configured to use 1 GPU(s).
Warning: visualization (Tensorboard) is configured to use, but currently not installed on this machine. Please install TensorboardX with 'pip install tensorboardx', upgrade PyTorch to version >= 1.1 to use 'torch.utils.tensorboard' or turn off the option in the 'config.json' file.
    epoch          : 1
…
    val_model_mae  : 0.004228887148201466
    val_model_max_ae: 0.10201796144247055
    val_consumption_mae: 0.049281004816293716
    val_consumption_max_ae: 0.4515477120876312
    val_i_a_mae    : 0.0033943946473300457
    val_i_a_max_ae : 0.08824486285448074
    val_n_wrong_i_a: 49
    val_n_exceeding_i_a_k: 243
Validation performance didn't improve for 15 epochs. Training stops.
 Finished run 109/135 with architecture: PudgeSixLayer, learning rate: 0.001, batch size: 64, max nodes: 512
 Started run 110/135 with architecture: PudgeSixLayer, learning rate: 0.001, batch size: 64, max nodes: 1024
84
PudgeSixLayer(
  (layer1): Linear(in_features=4, out_features=256, bias=True)
  (layer2): Linear(in_features=256, out_features=512, bias=True)
  (layer3): Linear(in_features=512, out_features=1024, bias=True)
  (layer4): Linear(in_features=1024, out_features=512, bias=True)
  (layer5): Linear(in_features=512, out_features=256, bias=True)
  (layer6): Linear(in_features=256, out_features=2, bias=True)
)
Trainable parameters: 1314818
Currently configured to use 1 GPU(s).
Warning: visualization (Tensorboard) is configured to use, but currently not installed on this machine. Please install TensorboardX with 'pip install tensorboardx', upgrade PyTorch to version >= 1.1 to use 'torch.utils.tensorboard' or turn off the option in the 'config.json' file.
    epoch          : 1
…
    val_model_mae  : 0.0038205934688448906
    val_model_max_ae: 0.09692945331335068
    val_consumption_mae: 0.042760539799928665
    val_consumption_max_ae: 0.40801215171813965
    val_i_a_mae    : 0.0032477513886988163
    val_i_a_max_ae : 0.08410552144050598
    val_n_wrong_i_a: 45
    val_n_exceeding_i_a_k: 264
Validation performance didn't improve for 15 epochs. Training stops.
 Finished run 110/135 with architecture: PudgeSixLayer, learning rate: 0.001, batch size: 64, max nodes: 1024
 Started run 111/135 with architecture: PudgeSixLayer, learning rate: 0.001, batch size: 64, max nodes: 2048
84
PudgeSixLayer(
  (layer1): Linear(in_features=4, out_features=512, bias=True)
  (layer2): Linear(in_features=512, out_features=1024, bias=True)
  (layer3): Linear(in_features=1024, out_features=2048, bias=True)
  (layer4): Linear(in_features=2048, out_features=1024, bias=True)
  (layer5): Linear(in_features=1024, out_features=512, bias=True)
  (layer6): Linear(in_features=512, out_features=2, bias=True)
)
Trainable parameters: 5251074
Currently configured to use 1 GPU(s).
Warning: visualization (Tensorboard) is configured to use, but currently not installed on this machine. Please install TensorboardX with 'pip install tensorboardx', upgrade PyTorch to version >= 1.1 to use 'torch.utils.tensorboard' or turn off the option in the 'config.json' file.
    epoch          : 1
…
